mobile_app/app/src/main/assets/rnet.tflite (tflite, 407808 bytes, 16 tensors)

rnet/conv1/Conv2D_bias f4 [28]
0	0xbeb4c660	-0.35307598
1	0x3d68b443	0.056812536
2	0xbebd70e5	-0.37000194
3	0x3c315249	0.010822841
4	0x3d9cf7ff	0.07664489
5	0xbbd6adf3	-0.006551498
6	0xbd011cf5	-0.031521756
7	0xbe7a0b27	-0.24418317
8	0x3a3678c3	0.0006960744
9	0x3efb720a	0.49110442
10	0x3c166e15	0.009181519
11	0x3ed3492b	0.4126676
12	0xbea138d4	-0.3148867
13	0xbda4deaf	-0.08050286
14	0x3cdd6981	0.027027847
15	0x3ddc3c30	0.10753667
16	0xbedac6f6	-0.4272992
17	0x3dda950f	0.10672962
18	0x3ed62cca	0.41831046
19	0x3d96cfb9	0.07363839
20	0xba0369c0	-0.00050130114
21	0x3e0daff8	0.13836658
22	0x3c96aa8a	0.018391866
23	0x3e04923d	0.1294641
24	0x3b9f142d	0.0048547
25	0xbd8d227c	-0.06891343
26	0xbf113a73	-0.5672981
27	0xbe95c8d2	-0.29254776

rnet/conv1/weights/read f4 [28, 3, 3, 3]
0	0xbf00cec8	-0.50315523
1	0xbecc5607	-0.39909384
2	0xbe9b90a9	-0.30383804
3	0xbed1596e	-0.40888542
4	0xbe97dd1b	-0.29660878
5	0xbe4e34c9	-0.20137323
6	0xbe95abe1	-0.29232696
7	0xbe3c74a4	-0.1840387
8	0xbdce1403	-0.10062411
9	0x3c9a951d	0.01886993
10	0xbd5547a4	-0.052070275
11	0xbcd0281a	-0.025409747
12	0x3d4f45a5	0.050603528
13	0xbcb22ad1	-0.021748932
14	0x3ba16452	0.004925289
15	0x3e0acb3a	0.13554087
16	0x3d59ecb6	0.05320426
17	0x3dcba40d	0.099433996
18	0x3ec2e865	0.38067928
19	0x3e74a256	0.23890051
20	0x3e5e3ffc	0.21704096
21	0x3ec5a48f	0.3860211
22	0x3e876221	0.26442054
23	0x3e82c207	0.25538656
24	0x3e9dabd4	0.30795157
25	0x3e2f9193	0.17145376
26	0x3e2ebd51	0.17064406
27	0xbd7128b6	-0.058876716
28	0xbe1bb3f5	-0.15205367
29	0xbddbda7e	-0.107350335
30	0xbed32fad	-0.4124731
31	0xbe6e5577	-0.2327479
32	0xbdf058a8	-0.1173566
33	0x3e3a0d5d	0.1816916
34	0x3ed2c70b	0.41167483
35	0x3f05ca9a	0.5226227
36	0x3ed08e16	0.40733403
37	0x3e66e4b1	0.22548176
38	0x3e52236e	0.20521328
39	0xbef2352d	-0.47306195
40	0xbed0db82	-0.4079247
41	0xbec11e93	-0.3771864
42	0xbea8430e	-0.3286366
43	0xbde0524e	-0.109531984
44	0xbd68678a	-0.056739368
45	0x3ee6aaf7	0.4505231
46	0x3e06af27	0.13152753
47	0x3c8ab762	0.016933147
48	0x3ea2151d	0.31656733
49	0x3e229408	0.15876782
50	0x3d03f3ba	0.032214858
51	0xbe02e60c	-0.12783068
52	0xbd8a1a3a	-0.067432836
53	0xbe27430e	-0.16334173
54	0xbeb7da56	-0.35908765
55	0xbe95cf9a	-0.2925995
56	0xbe80b259	-0.25136068
57	0xbd77d70d	-0.060507823
58	0x3a17f70f	0.00057970075
59	0xbc34eef2	-0.011043297
60	0x3e8d9818	0.276551
61	0x3e7f9401	0.24958803
62	0x3e360ae5	0.17777593
63	0xbede3ce0	-0.4340582
64	0xbe9cc27e	-0.30617136
65	0xbe84dc20	-0.25949192
66	0xbcf8d1bb	-0.030373445
67	0x3daf80ef	0.08569514
68	0x3d95b04a	0.07309015
69	0x3ecd1c17	0.40060493
70	0x3ec861c5	0.39137092
71	0x3ea2f6e5	0.3182899
72	0xbeb621b2	-0.35572582
73	0xbe6f9337	-0.23396002
74	0xbe2d0a3f	-0.1689844
75	0xbc051551	-0.008122758
76	0x3d83480f	0.064102285
77	0x3d88d8b8	0.06681961
78	0x3e7d6164	0.24744183
79	0x3e546a30	0.20743632
80	0x3e285e4d	0.16442223
81	0x3ec3303b	0.38122734
82	0x3eaf8ac1	0.34285548
83	0x3e97e30e	0.29665416
84	0x3e239974	0.15976506
85	0x3e38b186	0.1803647
86	0x3dfc22f3	0.123113535
87	0xbd3080d8	-0.043091625
88	0x3bb8a788	0.0056352057
89	0xbd51b8b9	-0.051201556
90	0xbea3e4e8	-0.3201058
91	0xbeab7359	-0.3348644
92	0xbe99284d	-0.2991356
93	0xbf243591	-0.64144236
94	0xbf11d3e4	-0.56963944
95	0xbf0350be	-0.5129508
96	0xbdda332c	-0.106542915
97	0xbd945014	-0.07241836
98	0xbd4604ee	-0.048344545
99	0x3d13083a	0.035896517
100	0xbc3900ce	-0.011291696
101	0xbbb2228f	-0.0054362486
102	0x3e97d360	0.29653454
103	0x3e9399a8	0.28828168
104	0x3ea2373e	0.3168277
105	0x3e6de136	0.23230442
106	0x3e35a935	0.17740329
107	0x3e4e4e80	0.20147133
108	0xbd33b81d	-0.043876756
109	0x3e96c0d0	0.2944398
110	0xbe3bab6c	-0.18327111
111	0xbd930c98	-0.071801364
112	0x3e65bbfa	0.22434989
113	0xbe7fb63f	-0.24971865
114	0xbcd611d6	-0.026131552
115	0x3e882fd5	0.26598993
116	0xbe30b969	-0.17258228
117	0xbd8de5dd	-0.069286086
118	0x3e8c6827	0.27423212
119	0xbe5c5a7d	-0.21518894
120	0x3d09214d	0.033479024
121	0x3e9bebe0	0.30453396
122	0xbe5019aa	-0.2032229
123	0xbd71918c	-0.058976695
124	0x3e62e301	0.22156908
125	0xbe79543d	-0.2434854
126	0xbe0efe09	-0.13964094
127	0x3e81db72	0.25362736
128	0xbe0ff084	-0.14056593
129	0xbd8e8302	-0.069585815
130	0x3e818708	0.25298333
131	0xbe41aeba	-0.18914309
132	0xbd2e8f41	-0.042617086
133	0x3e8d2787	0.2756922
134	0xbe2d6d86	-0.16936311
135	0xbdaf8b66	-0.0857151
136	0xbe1a1fc5	-0.15051182
137	0xbddec4a3	-0.10877349
138	0x3ed18774	0.40923655
139	0x3ec06786	0.37578982
140	0x3eb7078d	0.35747948
141	0xbe969f2a	-0.29418308
142	0xbe851af2	-0.2599712
143	0xbe52da35	-0.20591052
144	0xbe384c8e	-0.17997953
145	0xbe8192b1	-0.2530723
146	0xbe49b195	-0.19696648
147	0x3ef5f1cb	0.48036036
148	0x3ee85ba6	0.45382422
149	0x3ee4c8b1	0.44684365
150	0xbeaf0a1e	-0.34187406
151	0xbe923215	-0.28553835
152	0xbe6a20d5	-0.22864087
153	0xbdbb6354	-0.09149805
154	0xbe0be53f	-0.13661669
155	0xbe1431c5	-0.1447211
156	0x3e94a63f	0.29033086
157	0x3e91fd0f	0.2851338
158	0x3e74e366	0.2391487
159	0xbe26cdd1	-0.1628945
160	0xbdd0cb4b	-0.10195025
161	0xbdf5f07b	-0.12008759
162	0x3dd7c024	0.10534695
163	0xbd30aa47	-0.04313114
164	0x3c0cd208	0.008594997
165	0x3e6683dc	0.22511238
166	0xbdca9a0a	-0.09892662
167	0xbde9b42c	-0.11411318
168	0x3ebde202	0.37086493
169	0xbd9fe59c	-0.078074664
170	0xbe31c8e1	-0.17361785
171	0xbe12d967	-0.14340745
172	0xbb88f99d	-0.004180147
173	0x3e1844a4	0.14869934
174	0x3d8f696f	0.07002532
175	0xbd97cf93	-0.074126385
176	0xbceb24f2	-0.02870414
177	0x3e711163	0.23541789
178	0xbdb213c4	-0.08695176
179	0xbe2fb07e	-0.1715717
180	0xbef38cae	-0.47568268
181	0xbd9e13d2	-0.07718624
182	0x3e0bfa64	0.13669735
183	0xbbfca166	-0.00770967
184	0x3d8de84e	0.06929074
185	0x3e1fda6e	0.15610668
186	0x3e232cb6	0.15935025
187	0xbaeca14c	-0.0018053441
188	0xbd4f912b	-0.050675552
189	0xbe865151	-0.26233914
190	0xbe67cd5b	-0.2263693
191	0xbe1175f8	-0.14205158
192	0xbec75069	-0.38928536
193	0xbe9f7410	-0.31143236
194	0xbe686ad5	-0.22697003
195	0xbeb97dfb	-0.36228928
196	0xbe9eb99c	-0.31000984
197	0xbe7e0ad5	-0.2480882
198	0x3e10fe7e	0.14159581
199	0x3e3fb59e	0.18721625
200	0x3e49270b	0.196438
201	0xbb88d727	-0.004176039
202	0x3da89858	0.08232182
203	0x3dc36fe1	0.095428236
204	0xbe002393	-0.1251357
205	0xbd7bdb69	-0.061488543
206	0xbd8452ed	-0.06461129
207	0x3ed64f04	0.4185716
208	0x3ed80643	0.42192277
209	0x3ea924b4	0.33035815
210	0x3e5c57fe	0.21517941
211	0x3e72fbff	0.23728941
212	0x3e17bd11	0.14818217
213	0x3da5513b	0.08072134
214	0x3da599d7	0.08085983
215	0x3b7b0e5f	0.0038308126
216	0x3e840e2b	0.2579206
217	0x3e6e40f5	0.23266967
218	0x3e8505ff	0.25981137
219	0x3ebaf939	0.36518267
220	0x3ebb3d0c	0.36570013
221	0x3e97ccca	0.2964843
222	0x3d3a4279	0.04547355
223	0x3dc828eb	0.097734295
224	0xbd4a1ade	-0.04934203
225	0x3ea9416b	0.33057722
226	0x3e7d3214	0.24726135
227	0x3e959df1	0.29222062
228	0x3d03aae4	0.032145396
229	0xbccdccb5	-0.025122026
230	0xbd0c6c1e	-0.034282796
231	0xbea281ac	-0.31739557
232	0xbe923e42	-0.28563124
233	0xbe9ff533	-0.3124176
234	0xbd3b6935	-0.04575463
235	0xbe2fbfcf	-0.17163013
236	0xbdd7f529	-0.105448075
237	0xbea348d2	-0.31891495
238	0xbec3c68b	-0.38237414
239	0xbe9ffde6	-0.31248397
240	0xbe86ffb1	-0.26366952
241	0xbe455086	-0.19268999
242	0xbdce2fce	-0.10067712
243	0xbea22ebe	-0.31676286
244	0x3e5fc057	0.21850716
245	0x3d3876ee	0.045035295
246	0xbe60b1bf	-0.21942805
247	0x3e6fb13f	0.23407458
248	0x3dd0cd32	0.10195388
249	0xbeaa210c	-0.33228338
250	0x3e351e80	0.17687416
251	0x3dbacbe4	0.0912092
252	0xbe919b5f	-0.2843885
253	0x3e90ac79	0.28256586
254	0x3e2df60e	0.16988394
255	0xbea7af70	-0.32751036

rnet/conv2/Conv2D_bias f4 [48]
0	0x3dc09266	0.09402923
1	0x3ea79262	0.3272887
2	0x3e30b9c6	0.17258367
3	0x3cee4503	0.029085642
4	0x3e90b45f	0.28262612
5	0x3da73cf8	0.08165926
6	0x3dcfda2f	0.10149037
7	0x3c98a57f	0.018633602
8	0xbd998449	-0.074959345
9	0x3dabc94b	0.08388003
10	0xbd9fbec7	-0.0780006
11	0xbc9c0412	-0.01904491
12	0xbe46a6b1	-0.19399525
13	0x3de96c82	0.11397649
14	0x3e23bd6c	0.15990227
15	0xbddc1754	-0.10746637
16	0x3e11630b	0.14197938
17	0x3e8fd05f	0.28088662
18	0x3e578206	0.21045694
19	0x3decb915	0.11558739
20	0x3e510947	0.20413695
21	0xbbcbba67	-0.0062172893
22	0x3da04cc6	0.07827143
23	0x3dac8848	0.08424431
24	0x3df0c5d2	0.11756481
25	0x3e0b89aa	0.13626733
26	0x3d86a90d	0.06575213
27	0xbc1b23ee	-0.0094690155
28	0x3e57edb5	0.21086772
29	0xbea69200	-0.32533264
30	0x3e196b7b	0.14982407
31	0xbd7e3ce8	-0.062069803
32	0xbe0f6a94	-0.140055
33	0x3e2d09d1	0.16898276
34	0x3e165f26	0.14684734
35	0x3e184e25	0.1487356
36	0x3e0d2c3a	0.13786402
37	0x3e65a135	0.22424777
38	0xbe09a15b	-0.13440458
39	0x3e2ddbbb	0.16978352
40	0x3ea89303	0.3292466
41	0x3ce712d4	0.02820722
42	0x3e03201f	0.12805222
43	0xbd2df3bb	-0.042468768
44	0x3dd1dde0	0.102473974
45	0xbdef595b	-0.11686965
46	0xbe070a96	-0.13187632
47	0xbe3c7002	-0.18402103

rnet/conv2/weights/read f4 [48, 3, 3, 28]
0	0x3d69889a	0.05701504
1	0xbe01d8ee	-0.12680408
2	0xbe855ce7	-0.2604744
3	0x3d91b071	0.07113732
4	0x3cf7cff6	0.03025053
5	0xbdaad53b	-0.08341452
6	0xbd31ff62	-0.043456443
7	0x3b62a182	0.003458113
8	0xbdc6c067	-0.097046666
9	0xbcc31071	-0.02381155
10	0xbe0a3e05	-0.13500221
11	0x3c1b8ff2	0.009494768
12	0xbd22d733	-0.03975601
13	0xbb1700c3	-0.0023041226
14	0xbd8f37c8	-0.06993061
15	0x3d82f4d7	0.06394356
16	0x3ddce7cf	0.107864015
17	0x3e8631bf	0.26209828
18	0x3c0bd51f	0.008534699
19	0xbe2ec5d5	-0.17067654
20	0xbd2b5608	-0.041830093
21	0xbe173465	-0.1476608
22	0x3c207c6f	0.009795292
23	0xbd7564f7	-0.05991074
24	0x3cc1d377	0.023660405
25	0x3d4e29ae	0.050332718
26	0x3da36cb3	0.07979717
27	0x3e069633	0.13143234
28	0xbd6d576d	-0.057944704
29	0x3da3cc98	0.079980075
30	0xbb9c2c89	-0.004766051
31	0x3c0a257e	0.00843179
32	0x3b287687	0.0025705413
33	0x3a4cf704	0.00078187906
34	0x3bc70a63	0.0060742362
35	0x3db9bd30	0.09069288
36	0xbd76d437	-0.060260978
37	0x3b8b138f	0.004244275
38	0xbcc78145	-0.024353633
39	0xbc1212f8	-0.008915655
40	0x3b0718ab	0.0020614068
41	0x3b6cdaff	0.0036141274
42	0xbce5c83f	-0.028049586
43	0x3d19e57d	0.037572373
44	0xbd821f99	-0.06353683
45	0x3bd8cae6	0.0066159843
46	0xbc1ff774	-0.009763587
47	0xbc06be0e	-0.0082240235
48	0xbd709441	-0.058735136
49	0x3c9d732a	0.019219954
50	0x3cd29ca4	0.025709458
51	0x3d286260	0.041109443
52	0x3af233e7	0.0018478603
53	0x3bb3ee08	0.005491022
54	0xbc95459d	-0.01822167
55	0x3d84dbcd	0.06487236
56	0x3c22518b	0.009907137
57	0x3d7d4fed	0.0618438
58	0x3d504260	0.05084455
59	0x3cbbd286	0.022927534
60	0x3c1c4e9a	0.009540224
61	0x3d0879d8	0.033319324
62	0xbca54b34	-0.020177461
63	0xbc687fe9	-0.014190652
64	0xbb850891	-0.004059859
65	0x3c56c28c	0.013107907
66	0x3d252c48	0.040325433
67	0x3d27006a	0.04077188
68	0x3c776831	0.015100525
69	0xbbcd59df	-0.006266817
70	0x3bfeb85a	0.0077734413
71	0x3c37034a	0.011170218
72	0x3c0c2501	0.008553744
73	0xbc90d2ad	-0.017678583
74	0x3cc8f4a8	0.024530724
75	0xbca9fc8c	-0.020750307
76	0xbd14943b	-0.036274176
77	0xbb36c2b2	-0.0027887044
78	0xbb68e0ae	-0.003553431
79	0x3d026d1b	0.031842332
80	0x3c46b027	0.012126959
81	0x3c2dec09	0.010615357
82	0xbc3e9ecb	-0.011634539
83	0x3d392236	0.04519864
84	0xbda5951d	-0.08085082
85	0xbe41642d	-0.1888587
86	0xbe7a7a66	-0.24460754
87	0xbd0607fc	-0.03272246
88	0x3cab631c	0.020921282
89	0xbe045778	-0.12923992
90	0xbb27ecb9	-0.0025623275
91	0x3d234c9a	0.039867975
92	0xbe18b679	-0.14913358
93	0xbd584149	-0.052796636
94	0xbd800df0	-0.06252658
95	0xbd5b3425	-0.053516526
96	0xbd1583a9	-0.036502514
97	0xbaba013c	-0.0014191042
98	0xbe13cb19	-0.14432944
99	0xbcf77428	-0.030206755
100	0x3e125d94	0.1429351
101	0x3e66ff82	0.22558406
102	0xbab63615	-0.0013901616
103	0xbe22c1eb	-0.15894286
104	0xbc8b0b65	-0.016973207
105	0xbdd38d7a	-0.10329719
106	0xbb6ddafe	-0.003629386
107	0xbc9d18ad	-0.019176805
108	0xbc35c8ec	-0.011095267
109	0xbdbd1f1e	-0.09234451
110	0x3dc9bcc0	0.09850454
111	0x3da6d7a2	0.081465974
112	0xbc906cd4	-0.017630018
113	0xbccaf58f	-0.024775295
114	0xbd79369e	-0.060843103
115	0xbc0e79eb	-0.00869606
116	0xbc2ede2d	-0.010673088
117	0xbcc5a674	-0.024127223
118	0x3d0e1bc3	0.034694444
119	0x3d855499	0.06510276
120	0xbda1d980	-0.07902813
121	0x3b3ca438	0.0028784405
122	0xbde02fac	-0.10946593
123	0xbd6dfa10	-0.058099806
124	0x3c8f9a22	0.017529551
125	0xbc9402e5	-0.018067786
126	0xbd3564ea	-0.044285692
127	0xb9f1a23a	-0.0004608797
128	0xbe0530b9	-0.13006867
129	0xbd1406ae	-0.036139183
130	0xbc9e772a	-0.019343931
131	0x3cef85f0	0.029238671
132	0xbd7cacd1	-0.061688248
133	0x3a903266	0.0011001348
134	0x3c05c611	0.0081648985
135	0xbd38ea98	-0.0451456
136	0xbcb64783	-0.022250896
137	0xbbdff755	-0.006834904
138	0x3cd85361	0.026406946
139	0x3d9def4c	0.07711658
140	0xbbef4d65	-0.0073029273
141	0x3cecd914	0.028912105
142	0xbd79385e	-0.06084477
143	0x3b6c681a	0.0036072792
144	0xbc97ca74	-0.018529154
145	0x3d3585d0	0.044317067
146	0xbbfbb0c5	-0.0076809847
147	0x3c93b996	0.01803283
148	0xba52e5cc	-0.00080451067
149	0x3b799fcb	0.0038089629
150	0xbd1e3874	-0.038628057
151	0xbd0b72f5	-0.03404518
152	0x3c17f4dd	0.009274689
153	0xbc8d889f	-0.01727706
154	0x3ce30c6f	0.02771589
155	0x3c97fe0c	0.018553756
156	0xbb893157	-0.00418679
157	0xbc4b3f8e	-0.012405289
158	0xbb632113	-0.0034657165
159	0xbca3a2f8	-0.01997517
160	0xbcd1c9e9	-0.025608974
161	0xbc51dbb7	-0.012808732
162	0x3c66468f	0.014054908
163	0xbc94451b	-0.018099358
164	0xbb716b61	-0.0036837684
165	0xbcd12537	-0.02553044
166	0x3ab180ee	0.0013542452
167	0x3ca57221	0.020196022
168	0xbdd2dfcc	-0.10296592
169	0xbd6215de	-0.055196635
170	0xbe831628	-0.2560284
171	0xbe03c458	-0.12867868
172	0x3cb36124	0.021896906
173	0xbdd4e537	-0.10395282
174	0x3cdaec8d	0.026724124
175	0x3e085dc7	0.13317023
176	0xbe16b7ad	-0.14718504
177	0xbc58a977	-0.013223997
178	0x3d93d6d9	0.07218713
179	0xbc38a9ce	-0.011270953
180	0xbcef3dc1	-0.029204251
181	0xbc9e6a4f	-0.019337801
182	0xbe1a979b	-0.15096895
183	0xbc9f2878	-0.019428477
184	0x3e4514dd	0.1924624
185	0x3e6f2e83	0.23357587
186	0x3d282b3b	0.041056853
187	0xbe405366	-0.18781814
188	0xbdece119	-0.115663715
189	0x3d6091cc	0.054826543
190	0xbc320423	-0.010865244
191	0x3cdee35c	0.027208023
192	0x3cf6dfa8	0.030135944
193	0xbd9fd177	-0.07803624
194	0x3db221fd	0.08697889
195	0x3d024762	0.031806357
196	0xbcc03179	-0.02346109
197	0xbd2e86b7	-0.042608943
198	0x3bea7627	0.007155198
199	0x3d2d03c6	0.042239927
200	0xbbac20f0	-0.00525295
201	0xbccb7490	-0.024835855
202	0x3cf93400	0.030420303
203	0x3d91cdb4	0.07119313
204	0xbd741679	-0.059591744
205	0xbc0667e0	-0.008203477
206	0xbc616412	-0.013756769
207	0xbd3af584	-0.0456443
208	0x3caef7f9	0.021358477
209	0xbbf9a7a4	-0.0076188613
210	0xbbc06618	-0.0058715455
211	0xbd244b2f	-0.040110763
212	0xbd16d566	-0.036824606
213	0xbda66aa5	-0.081258096
214	0x3b11bab8	0.0022236537
215	0x3cdc0087	0.02685572
216	0xbdc9f7dc	-0.098617285
217	0x3d74be73	0.05975194
218	0x3d28d1c0	0.04121566
219	0x3c88b27b	0.016686669
220	0xbccde2bf	-0.025132535
221	0x3d54634f	0.05185252
222	0x3be5dd75	0.007014925
223	0x3da74781	0.08167935
224	0xbcfaf7d2	-0.030635748
225	0x3d23e975	0.040017564
226	0x3c69f79b	0.014280225
227	0x3d298b99	0.041392896
228	0xbc9c0c6c	-0.019048892
229	0x3cd8c387	0.026460422
230	0xbafe7c2d	-0.0019415669
231	0x3d26de53	0.04073937
232	0x3d02aa06	0.03190043
233	0x3c2e892b	0.010652821
234	0xbaf60665	-0.0018770216
235	0xbccddb5e	-0.025129016
236	0x3c0a2197	0.00843086
237	0x3c8405d7	0.016116066
238	0x3d7ef222	0.062242635
239	0xbce112da	-0.02747481
240	0xbb88c038	-0.004173305
241	0xbd0f1fd0	-0.03494245
242	0x3ca154e5	0.019693801
243	0x3c0995c4	0.008397523
244	0xbd50f88f	-0.051018294
245	0x3d0ecf97	0.03486594
246	0xbca95945	-0.02067245
247	0x3c0f10e1	0.008732052
248	0x3cfc1a43	0.030774241
249	0x3c4b7a2a	0.012419263
250	0x3bb61844	0.005557092
251	0x3c11bb31	0.008894728
252	0xbd1725e3	-0.036901366
253	0xbd64d6e7	-0.05586901
254	0xbd313936	-0.04326745
255	0xbd1a917a	-0.037736394

rnet/conv3/Conv2D_bias f4 [64]
0	0xbd36878a	-0.044562854
1	0x3d507485	0.05089237
2	0x3d17baf9	0.037043545
3	0x3cb69a85	0.022290478
4	0x3cad3fe2	0.021148626
5	0x3d97cb81	0.07411862
6	0x3d3c47da	0.04596696
7	0x3e381484	0.17976576
8	0x3df36201	0.11883927
9	0x3e80dfb8	0.25170684
10	0x3d412655	0.047155697
11	0x3ea55d6e	0.32297844
12	0xbe0b5d5f	-0.13609837
13	0x3dfd7447	0.12375694
14	0x3cee1a2c	0.029065214
15	0x3db36d27	0.087610535
16	0x3e0a344c	0.13496512
17	0x3df70e20	0.12063241
18	0xbd33f949	-0.04393891
19	0x3e7c0da1	0.24614574
20	0x3e370169	0.17871632
21	0x3a813cb9	0.0009860016
22	0x3dca1022	0.09866358
23	0x3e54ebeb	0.2079312
24	0x3d641ce2	0.055691607
25	0x3e102c6a	0.14079443
26	0xbc11fd49	-0.008910486
27	0x3e79a9be	0.24381158
28	0x3d582e8e	0.052778773
29	0xbd7c0571	-0.061528627
30	0x3e72c673	0.23708515
31	0x3e054294	0.13013679
32	0xbe022406	-0.12709054
33	0x3e1b5715	0.15169938
34	0x3cace366	0.021104526
35	0xbd047812	-0.03234107
36	0x3da5cd7e	0.08095835
37	0x3d9afca2	0.07567717
38	0x3e36ebb1	0.17863347
39	0x3e9cd27e	0.30629343
40	0x3d55182b	0.052025
41	0x3da3cb8e	0.07997809
42	0x3c79a7de	0.015237777
43	0x3e0b50ab	0.13604991
44	0x3ded282e	0.11579929
45	0x3d90b414	0.07065597
46	0x3e5d2aec	0.21598405
47	0x3d55e192	0.052217074
48	0x3db8f9f0	0.09032047
49	0x3e9d9221	0.3077555
50	0x3e81a175	0.25318494
51	0xbd155964	-0.036462203
52	0x3e878d48	0.26474977
53	0x3dd0eb61	0.10201145
54	0x3e007ff7	0.12548815
55	0x3e5da802	0.21646121
56	0x3e39e34b	0.18153112
57	0x3e26efd7	0.16302429
58	0x3d86f394	0.065894276
59	0x3e097fcf	0.13427661
60	0x3ce365c4	0.027758487
61	0xbc37e835	-0.011224796
62	0x3b4545d8	0.0030101445
63	0x3e0a73c6	0.13520727

rnet/conv3/weights/read f4 [64, 2, 2, 48]
0	0x3bfb7750	0.0076741353
1	0x3ddc86be	0.107678875
2	0x3d7ba883	0.061440002
3	0xbd1290c6	-0.035782598
4	0xbd2a7310	-0.04161364
5	0xbd31d27b	-0.04341362
6	0x3d5e4bb5	0.05427142
7	0xbb3460a1	-0.0027523416
8	0x3cae52ce	0.021279719
9	0x3ca6d7f4	0.020366646
10	0x3ce1f9fd	0.027585024
11	0xbd42b9d6	-0.04754051
12	0x3c8202ce	0.015870478
13	0xbd83c53c	-0.06434104
14	0xbdf9f5e8	-0.12205106
15	0x3cc7f0bd	0.024406785
16	0x3db11623	0.086468
17	0xbdcafdef	-0.09911715
18	0xbc667920	-0.014066964
19	0xbda15878	-0.07878202
20	0xbdaa36f8	-0.08311266
21	0xbbedaf45	-0.00725356
22	0xbd285d59	-0.04110465
23	0x3be72cd0	0.0070549026
24	0xbcffcfaa	-0.031226952
25	0x3dac7de4	0.08422449
26	0x3e01d1f9	0.12677754
27	0xbd2adda6	-0.041715287
28	0x3c31cc69	0.010851958
29	0x3da8bec8	0.08239514
30	0xbc9669e8	-0.018361047
31	0x3dad8f0d	0.084745504
32	0x3cdfdb66	0.027326297
33	0x3d24b922	0.04021562
34	0xbd33655f	-0.043797847
35	0xbdbb79fd	-0.09154127
36	0x3ca46b5b	0.020070722
37	0xbd8a3495	-0.067483105
38	0x3d97a9d0	0.07405436
39	0xbc39e4ca	-0.0113460515
40	0x3d97bbf2	0.074088946
41	0xbc988706	-0.018619072
42	0xbdb1024a	-0.08643015
43	0xbb9c9d82	-0.0047795186
44	0x3cde4433	0.02713213
45	0xbd1ef7f8	-0.0388107
46	0x3d3e6d4c	0.046490952
47	0xbbdf31b9	-0.0068113473
48	0x3c425694	0.011861462
49	0x3d865c81	0.065606125
50	0xbd06541c	-0.032795057
51	0xbd664da1	-0.056226376
52	0xbc0bbd6d	-0.008529049
53	0xbda516fc	-0.080610245
54	0x3e074a37	0.13211904
55	0xbda8f7fd	-0.08250425
56	0x3cf11cb2	0.029432628
57	0xbd1dbf2d	-0.038512398
58	0xbd09943a	-0.033588625
59	0xbd6786d0	-0.05652505
60	0xbceec07d	-0.02914452
61	0x3d943154	0.07235971
62	0x3c2a4c28	0.010394134
63	0xbd504565	-0.05084743
64	0x3cc3148b	0.023813507
65	0x3da9b8e0	0.08287215
66	0x3cebbc43	0.028776294
67	0xbd2e40ec	-0.042542383
68	0x3d0f61be	0.035005324
69	0x3cad790e	0.021175887
70	0xbdec24ce	-0.115304574
71	0x3d4896a2	0.04897178
72	0xbd4f71e3	-0.05064572
73	0x3bb56205	0.0055353665
74	0x3dac0de5	0.08401088
75	0xbd36563c	-0.044515833
76	0x3e309ff2	0.17248514
77	0xbd5b2ae2	-0.053507693
78	0x3dc6452e	0.09681164
79	0x3c5c1915	0.013433714
80	0xbd392e59	-0.045210216
81	0xbc3918b2	-0.011297392
82	0xbce98981	-0.02850795
83	0xba975408	-0.0011545429
84	0x3bbcc43a	0.0057606967
85	0xbd08cad5	-0.03339656
86	0xbc59ee42	-0.013301434
87	0x3d7e5a71	0.06209797
88	0x3d9ef036	0.0776066
89	0x3c4faf21	0.012676031
90	0x3d71a892	0.05899865
91	0xbc317749	-0.010831662
92	0xbcf80f5c	-0.030280761
93	0xbb5991c1	-0.0033198448
94	0xbd1b188d	-0.03786521
95	0xbcb295de	-0.021799978
96	0x3cc08d42	0.023504857
97	0x3da67781	0.08128262
98	0x3d980a80	0.07423878
99	0x3cda3d3a	0.026640523
100	0xbda37712	-0.07981695
101	0xbdb87096	-0.09005849
102	0x3d1ead58	0.038739532
103	0x3d2e7a4b	0.042597096
104	0xbc9223b5	-0.017839292
105	0xbd27698d	-0.040872145
106	0x3c727352	0.014798002
107	0xbd522c01	-0.051311497
108	0x3cb10320	0.021607935
109	0x3b0b1089	0.0021219573
110	0xbd63bce2	-0.055600055
111	0xbac92f2b	-0.001534914
112	0x3d615d9f	0.055020925
113	0xbd904907	-0.07045179
114	0xbd3acf3d	-0.045607794
115	0x3c7bc843	0.01536757
116	0xbd201c22	-0.03908933
117	0x3c8bf685	0.017085323
118	0xbe21a3f6	-0.15785202
119	0x3bc4b522	0.006003038
120	0xbb0adf21	-0.0021190124
121	0x3ce09884	0.027416475
122	0xbc66c327	-0.014084614
123	0x3d01eea9	0.031721745
124	0x3d0d2a83	0.03446437
125	0x3d392f20	0.045210958
126	0x3df63ac3	0.12022927
127	0x3debf0ea	0.1152056
128	0x3cf64fd4	0.030067362
129	0x3df5061e	0.119640574
130	0xbd6e1b56	-0.05813154
131	0x3cd6c2f5	0.02621601
132	0x3cfb9836	0.030712228
133	0xbd820646	-0.06348853
134	0x3ce9c8f4	0.028538205
135	0xbe06defe	-0.13171002
136	0x3ce91708	0.028453365
137	0x3d88cc08	0.06679541
138	0xbdd137b6	-0.10215704
139	0xbd286ca5	-0.041119236
140	0xbd37b29a	-0.044848062
141	0xbc572b8f	-0.013132944
142	0x3d110ba9	0.03541151
143	0xbcf2b611	-0.029627832
144	0xbd04ee3a	-0.032453753
145	0x3d1d2b61	0.038371447
146	0xbba4248b	-0.005009239
147	0x3e23d19b	0.15997927
148	0xbd92cd16	-0.07168023
149	0x3bc66ae0	0.006055221
150	0xbd34fb02	-0.044184692
151	0x3c12bd2b	0.008956234
152	0xbdc1e6ec	-0.09467873
153	0xbd39a51a	-0.04532347
154	0xbb23fccc	-0.0025022505
155	0x3c80171f	0.015636025
156	0xbdc19e26	-0.094539925
157	0x3cf0ac10	0.02937892
158	0xbd57859d	-0.052617658
159	0x3c7e993f	0.015539466
160	0x3d103338	0.035205096
161	0x3d2a420a	0.041566886
162	0x3ccc24ed	0.024919951
163	0xbc884249	-0.01663317
164	0x3cd802a6	0.02636845
165	0xbd4ebd3c	-0.050473437
166	0xbc6ba5eb	-0.01438282
167	0x3c0e44e1	0.008683414
168	0xbd94dbd0	-0.072684884
169	0x3c7ab497	0.015301845
170	0x3ccce577	0.025011761
171	0xbb88725d	-0.004164024
172	0x3e04a989	0.12955298
173	0x3b9df0ba	0.0048199566
174	0xbcc96084	-0.024582155
175	0x3d1ddee2	0.038542636
176	0xbdab85e2	-0.083751455
177	0xbd062c17	-0.03275689
178	0xbd2916ab	-0.041281383
179	0x3c93faa0	0.018063843
180	0xbc71e0b9	-0.014763051
181	0xbd93ce29	-0.07217056
182	0xbc9610ce	-0.01831856
183	0xbe049d87	-0.12950717
184	0x3c577196	0.01314964
185	0xbd2084ce	-0.039189152
186	0xbc75d17b	-0.015003557
187	0xbd8b86f1	-0.068128474
188	0x3d676222	0.05649007
189	0xbcd90285	-0.02649046
190	0xbcf8d32d	-0.030374134
191	0xbce8e722	-0.028430525
192	0xbc16558b	-0.0091756685
193	0xbd0c3c1d	-0.034237016
194	0x3d8ea969	0.06965906
195	0xba819976	-0.0009887654
196	0x3bc6c0cf	0.006065465
197	0x3dc28c35	0.094993986
198	0x3d3596d1	0.044333283
199	0x3cce9cc6	0.02522124
200	0x3d275306	0.04085066
201	0x3d85354c	0.06504306
202	0x3d3a95ad	0.0455529
203	0x3d08b528	0.03337589
204	0xbc2b948c	-0.010472428
205	0xbae7e665	-0.0017692564
206	0x3c5ca77a	0.013467664
207	0x3d18b657	0.037283268
208	0x3d03134b	0.03200082
209	0xbd2abc1c	-0.0416833
210	0xbd3e4350	-0.046450913
211	0xbcd65f30	-0.026168436
212	0xbd11cb06	-0.03559401
213	0xbccc24fb	-0.024919977
214	0x3d6d2435	0.057895858
215	0xbd19698e	-0.03745418
216	0xbd1d556d	-0.038411546
217	0xbd8a80d7	-0.067628555
218	0xbdb53999	-0.088488765
219	0x3cf9be94	0.030486383
220	0xbd5a8e63	-0.053358447
221	0x3d7a5436	0.061115466
222	0xbc77545c	-0.015095796
223	0xbbea542e	-0.0071511483
224	0x3d0a89ea	0.03382293
225	0xbe073a19	-0.13205756
226	0xbdbd4a15	-0.09242646
227	0xbd58e06d	-0.052948404
228	0x3d9455ca	0.072429255
229	0xbb434039	-0.0029792918
230	0x3c88e635	0.016711334
231	0x3ae553a3	0.0017496239
232	0xbcb2bb17	-0.021817727
233	0xbccbd183	-0.024880176
234	0x3d582983	0.052773964
235	0xbd52d042	-0.05146814
236	0x3d55199d	0.05202638
237	0x3caa1525	0.020762036
238	0x3da8895c	0.08229324
239	0x3c9b171f	0.018931923
240	0x3c2423cf	0.010018303
241	0xbd890028	-0.06689483
242	0x3db3dcea	0.087823704
243	0xbdc6a218	-0.09698886
244	0x3d5c19a6	0.053735398
245	0xbd20e573	-0.03928132
246	0x3d856cdb	0.06514903
247	0x3cc66cc0	0.024221778
248	0x3d0bf400	0.034168243
249	0x3d57db84	0.05269958
250	0xbd2ab3e5	-0.041675467
251	0x3d3d12cb	0.0461605
252	0xbdebd477	-0.11515134
253	0xbb719691	-0.0036863426
254	0xbb2f1ab9	-0.0026718809
255	0x3a7c49f7	0.0009624059

rnet/conv4/conv4/MatMul_bias f4 [128]
0	0x3ce69e4a	0.02815165
1	0x3e3dc207	0.18531047
2	0x3de52c30	0.11190069
3	0x3d8b5708	0.06803709
4	0x3e1b743e	0.15181062
5	0x3e71f3de	0.23628184
6	0x3e1fb98d	0.15598126
7	0x3d896818	0.067093074
8	0x3dcfb18d	0.10141287
9	0x3dc7841c	0.09741995
10	0x3e264db9	0.16240586
11	0x3e0d1f92	0.13781574
12	0x3dd60987	0.10451036
13	0x3bab574f	0.005228914
14	0x3d6024e9	0.0547227
15	0x3dc4270e	0.095777616
16	0x3e41aa01	0.18912508
17	0x3da6c625	0.08143262
18	0x3cf894b8	0.030344352
19	0x3e8f67c6	0.2800886
20	0x3caab309	0.020837324
21	0x3d5b0b2f	0.053477462
22	0x3dfda38e	0.12384711
23	0x3c8b3eb4	0.016997673
24	0x3e08bbf8	0.13352954
25	0x3d9ed23b	0.07754942
26	0x3deb1cf9	0.114801355
27	0x3e149f38	0.14513862
28	0x3d380468	0.044926077
29	0x3d8d1ae2	0.06889893
30	0x3ccd632b	0.025071701
31	0x3bc21300	0.005922675
32	0x3d6bb28f	0.057543334
33	0x3d60b1c7	0.05485704
34	0x3e490176	0.19629464
35	0xbc6d2577	-0.014474264
36	0x3d44df45	0.04806449
37	0x3d6d150e	0.057881407
38	0x3db133fe	0.08652495
39	0x3de97a75	0.1140031
40	0x3c392050	0.011299208
41	0x3dac2cb0	0.08406961
42	0x3e3f7218	0.18695867
43	0x3dbfc2a6	0.09363298
44	0x3d829ce8	0.06377584
45	0x3d8e61af	0.069522254
46	0x3e02e635	0.1278313
47	0x3dc6a129	0.096987076
48	0x3d723d39	0.059140418
49	0x3e08e21e	0.13367507
50	0x3d11564e	0.035482697
51	0x3d80d16b	0.06289943
52	0x3d3dabcc	0.046306416
53	0x3d57ba83	0.052668106
54	0x3de34e30	0.110988975
55	0x3d3525e0	0.044225574
56	0x3d74dfbb	0.05978368
57	0x3d115310	0.035479605
58	0x3de55b18	0.111990154
59	0xbd4f57c2	-0.0506208
60	0x3d8ac400	0.06775665
61	0x3d66c8e4	0.056343928
62	0x3dc3e5e4	0.095653325
63	0x3de3db8f	0.11125862
64	0x3d944dcf	0.07241403
65	0x3d9e2170	0.077212214
66	0x3d8faf46	0.07015853
67	0x3c4c2700	0.01246047
68	0x3da1f13e	0.079073414
69	0x3db17fcd	0.08666954
70	0x3e231f32	0.15929869
71	0x3d4557e8	0.048179537
72	0x3d5dd050	0.05415374
73	0x3dac9df4	0.08428565
74	0x3e342318	0.17591512
75	0x3dcf1ae9	0.101125546
76	0xbd3dcf80	-0.046340466
77	0x3dc8818c	0.09790334
78	0xbccab4cd	-0.024744416
79	0x3d699d43	0.057034742
80	0x3d902b2b	0.07039484
81	0x3d5e7351	0.054309193
82	0x3c8c9860	0.017162502
83	0x3d30437f	0.04303312
84	0xbd85da8e	-0.065358266
85	0x3e08b21e	0.13349196
86	0x3e68c90c	0.22732943
87	0x3da8ef0f	0.08248722
88	0x3dd26810	0.102737546
89	0x3e10015d	0.1406302
90	0x3d136a44	0.035990015
91	0x3c861733	0.016368484
92	0x3e1ecfe9	0.15508999
93	0x3d50e9fb	0.05100439
94	0x3cfdf5f4	0.031001069
95	0x3d589d80	0.05288458
96	0x3d02fb3f	0.03197789
97	0x3e98127f	0.2970161
98	0x3c9112fa	0.017709244
99	0x3c8d1e87	0.01722647
100	0x3d832b1d	0.064047076
101	0x3d00b97d	0.031426895
102	0x3e0d5439	0.1380166
103	0x3cc885e5	0.024477908
104	0x3da3c657	0.07996815
105	0x3d965644	0.073406726
106	0x3dbb7194	0.09152523
107	0x3e03dfed	0.1287839
108	0x3d8fd038	0.070221364
109	0x3e92f0a1	0.2869921
110	0x3e0ad8be	0.13559243
111	0x3d6aae43	0.057295095
112	0x3cb0dfac	0.02159103
113	0x3e774768	0.24148333
114	0x3d10e007	0.0353699
115	0x3dd49052	0.103790894
116	0x3d8d48ad	0.068986274
117	0x3d0c2155	0.034211475
118	0x3e0470a5	0.12933595
119	0x3d8a5189	0.06753833
120	0x3dcf426f	0.10120093
121	0x3dd061c1	0.10174895
122	0x3d7840b9	0.0606086
123	0x3d8dd9e3	0.06926324
124	0x3e87148f	0.26382872
125	0x3e2b5947	0.16733275
126	0x3de57ce3	0.11205461
127	0x3cd6828d	0.026185298

rnet/conv4/weights/read/transpose f4 [128, 576]
0	0x3c886775	0.016650895
1	0x3c817d3d	0.015806789
2	0x3c43a537	0.011941246
3	0x3bb0668a	0.0053833174
4	0xbce52f01	-0.027976515
5	0xbcc85887	-0.024456276
6	0xbb95a006	-0.0045661954
7	0x3c4e91a0	0.012607962
8	0x3b915b84	0.0044359583
9	0xba074357	-0.0005159876
10	0x3c764dbb	0.015033181
11	0x3c52d469	0.012868025
12	0x3c842390	0.016130239
13	0x3af1f8a3	0.001846094
14	0xbb12dea5	-0.0022410539
15	0xbd421f27	-0.04739299
16	0x3b2b7dcc	0.002616751
17	0x3caa8804	0.02081681
18	0xbcf887a3	-0.030338114
19	0x3c8f266f	0.017474381
20	0xbad7a09b	-0.0016451062
21	0x3c141140	0.009037316
22	0xbd3b871b	-0.045783143
23	0x3cd068c3	0.02544058
24	0x3c6f9af3	0.014624345
25	0x3c9ffcbc	0.019529693
26	0x3c66e4ae	0.014092607
27	0x3befb620	0.007315412
28	0x3b501c04	0.003175498
29	0xbceae789	-0.028674858
30	0x3c00b31f	0.007855206
31	0x3c9763d6	0.018480223
32	0xbc07910d	-0.008274329
33	0x3c6ec28f	0.014572754
34	0xbc663ef0	-0.014053091
35	0x3c16b63c	0.0091987215
36	0x3bc14ac9	0.0058988077
37	0xba3449c7	-0.0006877449
38	0xba2c6f81	-0.00065778947
39	0x3a66828f	0.00087932585
40	0x3b4027e9	0.0029320663
41	0x3c8c96e8	0.017161801
42	0xbcb1652d	-0.02165469
43	0x3cab4c36	0.020910364
44	0x3c5c6789	0.013452419
45	0x3ba21d2a	0.0049473243
46	0xbcae4e1a	-0.021277476
47	0xbc3fb65e	-0.011701195
48	0xbc0105e8	-0.007874943
49	0x3c801593	0.015635287
50	0x3b5801d0	0.0032960065
51	0x3bca4da3	0.006173806
52	0x3cd70018	0.026245162
53	0x3beff162	0.0073224762
54	0xbb426cc2	-0.0029666875
55	0xbb5fe66e	-0.0034164446
56	0xbbb03a76	-0.005378063
57	0xbbc1399c	-0.00589676
58	0xbb35a9b6	-0.0027719564
59	0x3c5ca9e9	0.013468244
60	0xbc0fdb2a	-0.00878028
61	0x3c003165	0.007824277
62	0x3b29c92b	0.002590726
63	0xb92a721d	-0.00016254974
64	0x3c8a36fd	0.016871924
65	0x3c8c1a95	0.017102519
66	0xbbf5799d	-0.007491304
67	0xba3bf86c	-0.00071705016
68	0xbc6a51ea	-0.014301756
69	0x3ad01713	0.0015876017
70	0xbc618a31	-0.013765858
71	0x3b7e5dc6	0.0038813218
72	0x3c34ed58	0.011042915
73	0xbc81e0a2	-0.015854184
74	0x3cda26e3	0.02662987
75	0xbca85718	-0.020549342
76	0x3ce1bcca	0.027555842
77	0x3a3227b8	0.00067960797
78	0x3b2ea793	0.0026650175
79	0xbcc92033	-0.024551487
80	0x3c2f419f	0.010696798
81	0xbba6be85	-0.0050886297
82	0xbcaa21f4	-0.020768143
83	0xbc38bac8	-0.011275001
84	0xbc3ec7c3	-0.011644307
85	0x3b0d89e2	0.0021597077
86	0xbc5cf6b9	-0.013486558
87	0x3bb7e6f0	0.0056122467
88	0xbb928f65	-0.0044726604
89	0x3bf2a28d	0.0074046315
90	0x3b601bce	0.003419626
91	0x3c38a0d9	0.011268818
92	0xbbbe9231	-0.005815767
93	0xbc94f5a0	-0.01818353
94	0xbb5d5be4	-0.0033776695
95	0x3ccea0e4	0.025223203
96	0x3c0d53b4	0.008625913
97	0x3c22f50b	0.009946118
98	0xbc20aebd	-0.009807286
99	0xbb47382b	-0.003039847
100	0x3bd93dcb	0.0066296807
101	0x3b8d35b9	0.0043093828
102	0x394dd779	0.00019630593
103	0x3c75d8d3	0.015005308
104	0xbc3d6632	-0.01156001
105	0x3bc706ee	0.006073824
106	0xbcb3f6f9	-0.021968352
107	0x3b82dd8e	0.0039936965
108	0x3b8fb165	0.0043851607
109	0x3c0128ff	0.007883309
110	0xb78092f9	-1.5327229e-05
111	0xbbcbd47b	-0.006220398
112	0xbc0626ab	-0.00818793
113	0x3c804bf6	0.015661221
114	0x39e302a9	0.00043298796
115	0x3c45afd0	0.012065843
116	0x3bb13e09	0.0054090065
117	0x3b3f23e9	0.0029165691
118	0x3c66827c	0.014069196
119	0xbc27758a	-0.010220895
120	0x3c01f885	0.007932787
121	0x3c15fadf	0.009154051
122	0xbcb4aa54	-0.022053875
123	0x3c020874	0.007936586
124	0xbcbee7aa	-0.023303825
125	0xbb9606ac	-0.004578432
126	0xbc2c6e48	-0.01052434
127	0xbbb5b944	-0.005545767
128	0x3ca52b64	0.020162292
129	0x3c964913	0.018345391
130	0xbb5187f6	-0.0031971908
131	0x3c47c272	0.0121923555
132	0xbc9553e4	-0.018228479
133	0x3adeb071	0.001698984
134	0xbb509034	-0.0031824233
135	0xbb9abb49	-0.004722033
136	0xbbce7302	-0.006300331
137	0xbcf9a66e	-0.030474868
138	0x3c78891b	0.015169407
139	0xbc92a297	-0.017899795
140	0x3cf2b257	0.029626055
141	0xbbd2eef1	-0.0064371754
142	0x3c91a8dd	0.017780716
143	0xbc6a7403	-0.014309886
144	0x3b46f868	0.0030360464
145	0x3b51b38a	0.0031997883
146	0xbca8cc14	-0.020605125
147	0xba5c7e90	-0.0008411193
148	0xbc3dcdec	-0.01158474
149	0xbbbbd83c	-0.0057325643
150	0x3c11480e	0.008867277
151	0x3c4676a4	0.012113247
152	0x3ce0fced	0.027464354
153	0xbb515cb7	-0.0031946131
154	0x3c07ecb3	0.00829618
155	0x3cb65216	0.022255939
156	0x3a952da9	0.0011381406
157	0xbc50bdd6	-0.012740573
158	0x3ca2429e	0.019807156
159	0xbbbf1744	-0.005831631
160	0xbb0dfc3b	-0.0021665234
161	0xbc71b860	-0.014753431
162	0xbcaf727c	-0.021416895
163	0x3ba7a48f	0.0051160525
164	0x3cdba361	0.026811304
165	0x3bd7458d	0.0065695704
166	0xbc4f0eb2	-0.012637781
167	0x3ce00bf3	0.027349448
168	0xbc166f49	-0.009181806
169	0x3b9e1068	0.004823733
170	0xbaa2fea1	-0.0012435504
171	0xbc26d453	-0.010182458
172	0x3ab078ab	0.0013463696
173	0x3c26e175	0.010185589
174	0x3ca68e8f	0.02033165
175	0xbc058d20	-0.008151323
176	0x3a948094	0.0011329823
177	0x3cf6d980	0.030133009
178	0x3bbc3ae5	0.0057443255
179	0x3d059cc4	0.032620206
180	0x3d10b3b8	0.035327643
181	0x3d0b5359	0.034015033
182	0x3c9a2498	0.018816277
183	0xbb23a3e1	-0.0024969506
184	0xbb75d932	-0.0037513492
185	0xb84cee34	-4.8859234e-05
186	0xbcb2af96	-0.021812242
187	0xbb41b08f	-0.00295547
188	0xbca66e0f	-0.020316152
189	0x3c4c0038	0.012451224
190	0xbca76edb	-0.020438602
191	0x3c3767dd	0.0111941965
192	0x3bdc0b7f	0.0067152376
193	0x3b16fae9	0.0023037738
194	0x3c8ac258	0.016938373
195	0xbc4d6e5f	-0.012538522
196	0xbc43b44e	-0.011944843
197	0xbb7d527f	-0.0038653908
198	0x3a9d0e30	0.0011982378
199	0xb714d695	-8.871449e-06
200	0x3c064faa	0.008197704
201	0x3c08d444	0.008351389
202	0x3bc5cf6a	0.0060366886
203	0x3cadbb1c	0.021207385
204	0xbb11cee6	-0.0022248565
205	0x3bbd69e9	0.0057804477
206	0xbb86ad06	-0.0041099815
207	0xbcc14a70	-0.023595065
208	0x3c36e31f	0.011162548
209	0x3b841123	0.004030363
210	0xbcbf2af0	-0.023335904
211	0x3b7e0c67	0.0038764717
212	0xbcc62d04	-0.024191387
213	0x3c570726	0.013124263
214	0xbcf7ae9c	-0.030234627
215	0xbbef7d87	-0.007308665
216	0xbcc2066e	-0.023684707
217	0xbc1b65ec	-0.009484749
218	0xbc8377d4	-0.01604835
219	0x3c15f8c6	0.0091535505
220	0x3bab8f22	0.0052355686
221	0xbca090d0	-0.019600302
222	0x3c040754	0.008058388
223	0x3c428670	0.011872873
224	0xbcca4ea0	-0.024695694
225	0xbcaf3731	-0.021388622
226	0xbc0f11ee	-0.008732302
227	0xbbc1a789	-0.0059098643
228	0xbc150a45	-0.009096687
229	0xbb9d4809	-0.004799847
230	0x3be7dfee	0.007076255
231	0x3b22a58b	0.002481791
232	0xbacde0cb	-0.0015707252
233	0x3b4ea196	0.0031529418
234	0xbcebc54c	-0.028780602
235	0x3ce6570c	0.028117679
236	0x3bb6139e	0.005556538
237	0xb98116ea	-0.0002462187
238	0xbc12445e	-0.008927433
239	0xbcb5a6a3	-0.022174185
240	0xba677593	-0.00088294706
241	0x3b3e9118	0.0029078182
242	0x3ba738e3	0.005103217
243	0xbb0928e6	-0.0020928918
244	0x3b777af4	0.0037762495
245	0xbab2f42f	-0.0013653095
246	0xbcc98ef7	-0.024604304
247	0x3abea40a	0.0014544737
248	0xbb554fe7	-0.0032548846
249	0xbb503d8c	-0.0031774966
250	0xbc10ab11	-0.008829848
251	0x3baf998d	0.005358881
252	0xbbb59232	-0.0055411095
253	0xbbe21362	-0.0068992833
254	0xbb94188d	-0.0045195282
255	0x3c6f079e	0.014589218

rnet/conv5-1/conv5-1/MatMul_bias f4 [2]
0	0xbdc185d2	-0.09449352
1	0x3dc185d6	0.09449355

rnet/conv5-1/weights/read/transpose f4 [2, 128]
0	0x3e1d1d3c	0.15343183
1	0xbd380dca	-0.044935025
2	0xbc76ea4d	-0.01507051
3	0xbe181fe7	-0.1485592
4	0x3c8f43fb	0.01748847
5	0xbc62de11	-0.01384689
6	0x3da70742	0.08155681
7	0x3f562b06	0.836594
8	0xbcb5ca4f	-0.022191195
9	0x3ef3bfcb	0.47607264
10	0xbf463e16	-0.77438486
11	0xbc8d6ca0	-0.01726371
12	0x3dbd98e5	0.09257678
13	0xbea19c49	-0.3156455
14	0x3bd04eed	0.006357065
15	0x3e47300b	0.1945192
16	0x3d768965	0.060189623
17	0xbf5016f4	-0.81285024
18	0x3dddf229	0.10837204
19	0x3da84423	0.08216121
20	0x3d9ba632	0.076000586
21	0x3eb967e8	0.36212087
22	0x3e84731d	0.25869074
23	0x3d483105	0.048874874
24	0x3ee18d08	0.4405291
25	0xbe601186	-0.21881685
26	0x3d024456	0.03180345
27	0x3c74c8d1	0.0149404565
28	0x3be8af70	0.007100992
29	0x3f20d89b	0.62830514
30	0x3de12b8c	0.10994634
31	0x3d7266c5	0.05918004
32	0xbd1d27fa	-0.038368203
33	0xbe07ea08	-0.1327287
34	0x3cf47b85	0.029844055
35	0xbe4cba8a	-0.19993034
36	0xbd99bbd2	-0.07506527
37	0xbdffe42a	-0.12494691
38	0x3f139387	0.57646984
39	0xbe568a68	-0.20951235
40	0x3d4cbe4a	0.04998616
41	0xbe96dbc2	-0.29464537
42	0xbf5bd7a9	-0.85875946
43	0x3d7bf2af	0.061510738
44	0x3dffeaaf	0.12495934
45	0xbd654d2f	-0.05598181
46	0xbde64f38	-0.112455785
47	0x3eb0abe2	0.34506136
48	0x3d11a7c3	0.03556038
49	0xbe9e8fc9	-0.30969074
50	0xbc1f52ef	-0.009724363
51	0x3da0be62	0.07848813
52	0xbd02be16	-0.03191956
53	0xbe05d71b	-0.13070337
54	0xbf409a34	-0.75235295
55	0x3c8678d0	0.01641503
56	0x3e3c9312	0.18415478
57	0xbd4507b8	-0.048103064
58	0x3ef117bf	0.4708843
59	0xbcb89df9	-0.022536265
60	0xbef5b65b	-0.4799069
61	0xbe1d85b8	-0.15383041
62	0xbf48fe85	-0.78513366
63	0xbf1e0bfb	-0.6173703
64	0x3d72da51	0.059290234
65	0x3b307f6c	0.0026931418
66	0x3efc1d06	0.49240893
67	0xbe5f5f2e	-0.21813652
68	0x3cef4712	0.029208694
69	0x3e6b4887	0.22976886
70	0x3d93556a	0.07194026
71	0xbe71c1bb	-0.23609059
72	0x3e582230	0.21106791
73	0x3d7801e9	0.060548697
74	0xbb6c8bb9	-0.0036094023
75	0x3d966a4e	0.07344495
76	0x3ced2508	0.028948322
77	0x3ee2bcc3	0.4428464
78	0xbd7042f5	-0.058657605
79	0x3dfd10f3	0.123567484
80	0xbd08dc7e	-0.033413403
81	0x3dfff5c8	0.12498051
82	0xbd8f6256	-0.07001178
83	0x3d06672a	0.03281323
84	0x3f523644	0.8211405
85	0x3f117964	0.5682585
86	0x3d4811a6	0.048844956
87	0x3d7df3a6	0.06199994
88	0xbd657c98	-0.056027025
89	0xbf40d355	-0.7532247
90	0x3f2e144d	0.67999727
91	0xbf47961c	-0.77963424
92	0x3d9eb118	0.07748622
93	0x3cce8cdf	0.025213657
94	0x3e70e9df	0.23526715
95	0xbc985db4	-0.018599369
96	0xbce398fb	-0.027782908
97	0x3f62b817	0.8856215
98	0x3d87a292	0.06622805
99	0x3d685756	0.056723915
100	0x3dead723	0.11466815
101	0xbd0e0f6b	-0.034682672
102	0x3e800d48	0.25010133
103	0x3ce93139	0.028465854
104	0x3d8693c1	0.065711506
105	0x3d2b6bd8	0.041850895
106	0xbdd63924	-0.104601175
107	0x3d48559a	0.04890976
108	0xbe94802e	-0.29004043
109	0xbaf1d967	-0.0018451632
110	0x3d063eae	0.03277462
111	0xbf3bd21d	-0.7336748
112	0x3ece50d1	0.40296033
113	0xbf2e679f	-0.68126863
114	0xbc5353be	-0.012898384
115	0xbf13c27d	-0.5771864
116	0xbb2b0e68	-0.0026101116
117	0xbf2ec094	-0.682626
118	0x3ef36560	0.4753828
119	0xbb65e5b6	-0.0035079545
120	0x3cf06450	0.029344708
121	0xbb65737f	-0.0035011468
122	0x3de1c786	0.11024384
123	0xbccea72d	-0.0252262
124	0x3d49ba9d	0.049250234
125	0xbec3e63c	-0.38261592
126	0xbdb5aafb	-0.088705026
127	0xbf3ccaa1	-0.7374669
128	0xbe1e20e1	-0.1544223
129	0x3d387abc	0.045038924
130	0x3c6d01f8	0.014465801
131	0x3e18cb22	0.14921239
132	0xbc98bbe1	-0.018644275
133	0x3c558389	0.013031849
134	0xbda80e94	-0.082059056
135	0xbf562ef7	-0.8366541
136	0x3cac25c7	0.021014107
137	0xbef3fe22	-0.47654825
138	0x3f46554a	0.7747389
139	0x3c83c8c3	0.016086942
140	0xbdbf65d2	-0.093455926
141	0x3ea1a875	0.31573835
142	0xbbabdd2b	-0.005244871
143	0xbe47cf60	-0.19512701
144	0xbd706e4f	-0.05869895
145	0x3f50167e	0.8128432
146	0xbde0a96e	-0.10969816
147	0xbda6b895	-0.08140675
148	0xbd99b051	-0.07504333
149	0xbeb8e6f1	-0.36113694
150	0xbe84a8de	-0.25910085
151	0xbd461cd1	-0.048367325
152	0xbee1052a	-0.43949252
153	0x3e615b93	0.22007589
154	0xbd064b2e	-0.03278654
155	0xbc6ef7e6	-0.014585471
156	0xbbf75f73	-0.00754922
157	0xbf20dfed	-0.62841684
158	0xbddf1342	-0.10892345
159	0xbd74c1f5	-0.059755284
160	0x3d192824	0.037391797
161	0x3e08ab1d	0.13346525
162	0xbd00048c	-0.031254336
163	0x3e4b636c	0.19862145
164	0x3d9a5f9b	0.075377665
165	0x3e0010ee	0.12506458
166	0xbf137f7c	-0.576164
167	0x3e56952c	0.20955342
168	0xbd481a12	-0.048852988
169	0x3e9702be	0.2949428
170	0x3f5becc7	0.8590817
171	0xbd7d8487	-0.061893966
172	0xbdfd183a	-0.123581365
173	0x3d64d3c4	0.055866018
174	0x3de62e61	0.11239315
175	0xbeb02def	-0.34410045
176	0xbd10ab10	-0.035319388
177	0x3e9e695c	0.30939758
178	0x3c1a6fd3	0.009426075
179	0xbd9f9815	-0.07792679
180	0x3d0724a4	0.032993928
181	0x3e066097	0.13122784
182	0x3f40aae4	0.7526076
183	0xbc87abc8	-0.016561404
184	0xbe3cbfc7	-0.18432532
185	0x3d445922	0.047936566
186	0xbef0a85e	-0.47003454
187	0x3cb86bdf	0.022512374
188	0x3ef54a27	0.47908136
189	0x3e1db92c	0.15402669
190	0x3f48d199	0.7844482
191	0x3f1dca80	0.61637115
192	0xbd7349fe	-0.059396736
193	0xbb6aff3f	-0.0035857705
194	0xbefb8a39	-0.49128893
195	0x3e60d611	0.2195666
196	0xbcec30ab	-0.0288318
197	0xbe6c1b2b	-0.23057239
198	0xbd93199a	-0.071826175
199	0x3e72b113	0.23700361
200	0xbe57ff77	-0.21093546
201	0xbd7c2ff4	-0.06156917
202	0x3b00d21c	0.0019656485
203	0xbd938a3d	-0.07204101
204	0xbce81750	-0.028331429
205	0xbee27c03	-0.44235238
206	0x3d6c5bfe	0.057704918
207	0xbdfc8bfd	-0.12331388
208	0x3d0acc01	0.03388596
209	0xbdfee346	-0.12445693
210	0x3d8f390f	0.06993305
211	0xbd056e15	-0.032575686
212	0xbf52347a	-0.8211132
213	0xbf1178e9	-0.5682512
214	0xbd460b9f	-0.048350926
215	0xbd7e4d46	-0.062085412
216	0x3d664a2b	0.056223076
217	0x3f40bcf4	0.7528832
218	0xbf2ddbc0	-0.67913437
219	0x3f478ac0	0.7794609
220	0xbd9f417b	-0.07776161
221	0xbcc805df	-0.024416862
222	0xbe720ae0	-0.23636961
223	0x3c9ceed3	0.019156849
224	0x3cea0a24	0.028569289
225	0xbf629ee0	-0.88523674
226	0xbd85ebce	-0.06539117
227	0xbd63325b	-0.055467945
228	0xbdea9147	-0.11453491
229	0x3d0e020c	0.03466992
230	0xbe803477	-0.25040027
231	0xbcea4d38	-0.028601274
232	0xbd83e25d	-0.0643966
233	0xbd2d00e6	-0.042237185
234	0x3dd509ed	0.10402284
235	0xbd4bbb58	-0.04973921
236	0x3e948516	0.29007787
237	0x3b01b699	0.0019792675
238	0xbd057d97	-0.032590475
239	0x3f3be902	0.73402417
240	0xbecea529	-0.40360382
241	0x3f2e5a92	0.6810695
242	0x3c507df9	0.012725347
243	0x3f13b26d	0.5769413
244	0x3b715486	0.0036824062
245	0x3f2ec2a4	0.6826575
246	0xbef3ed9e	-0.47642225
247	0x3b87f9c0	0.0041496456
248	0xbcf95e4c	-0.030440472
249	0x3b72bcbb	0.0037038762
250	0xbde557e8	-0.111984074
251	0x3cd6b4f4	0.026209332
252	0xbd4f5920	-0.050622106
253	0x3ec3d874	0.38251078
254	0x3db44117	0.088014774
255	0x3f3cebf1	0.7379752

rnet/conv5-2/conv5-2/MatMul_bias f4 [4]
0	0x3ca474c2	0.020075206
1	0xbdde9c7d	-0.108696915
2	0xbe0bde59	-0.13659038
3	0xbd621a79	-0.055201028

rnet/conv5-2/weights/read/transpose f4 [4, 128]
0	0xbe08ff3f	-0.13378619
1	0xbe1d090e	-0.15335485
2	0xbb691235	-0.003556383
3	0x3c08b5e3	0.008344146
4	0xbae94de7	-0.0017799706
5	0x3db7d809	0.08976752
6	0x3deb2d02	0.11483194
7	0xbd1e5c9d	-0.03866254
8	0xbd63d813	-0.055625986
9	0x3dd67ac9	0.10472638
10	0x3c0c681d	0.008569744
11	0x3a05e59b	0.0005107761
12	0xbd55199c	-0.052026376
13	0x3c8ea7db	0.017414024
14	0xbe306765	-0.17226942
15	0xbe05da4f	-0.1307156
16	0x3c3d8ef7	0.01156973
17	0x3c44a7cf	0.012002899
18	0x3c7f09f9	0.0155663425
19	0x3d667142	0.056260355
20	0xbd3f9055	-0.046768505
21	0x3b939191	0.004503437
22	0x3cb4e5bd	0.022082204
23	0x3e038ace	0.12845919
24	0x3d36fb7a	0.04467342
25	0x3cc7323e	0.02431595
26	0xbd423fc1	-0.04742408
27	0x3cb6a1e5	0.022293994
28	0xbe3a1a81	-0.18174173
29	0x3d45a7d5	0.04825576
30	0xbce934cb	-0.028467556
31	0xbe6344ff	-0.22194289
32	0x3cbd43df	0.023103653
33	0x3de17932	0.11009444
34	0x3ddcb085	0.10775856
35	0x3b3e8e85	0.0029076647
36	0xbe00e414	-0.12587005
37	0xbd8dfd57	-0.06933086
38	0xbdb2d773	-0.087325
39	0x3b6435c0	0.0034822077
40	0xbe5870c5	-0.21136768
41	0xbd82caed	-0.06386361
42	0x3ba616c4	0.005068632
43	0xbdc5434e	-0.09631978
44	0x3d2f3586	0.042775653
45	0x3dd26d73	0.10274782
46	0xbdf9478a	-0.12171848
47	0x3e5721bc	0.21008962
48	0xbdbb33f3	-0.09140768
49	0xba333ddd	-0.00068375265
50	0xbdb50919	-0.08839626
51	0xbeb7bf78	-0.35888267
52	0x3c91a5df	0.017779289
53	0x3db7e513	0.08979239
54	0x3cf06366	0.029344272
55	0xbd975986	-0.07390122
56	0x3d2de9db	0.04245935
57	0x3e10b70f	0.14132331
58	0xbd69de1f	-0.057096597
59	0xbc22b435	-0.00993066
60	0xbb5cb6d8	-0.003367832
61	0xbd5cf46a	-0.05394403
62	0x3ca9cbcd	0.020727063
63	0x3ccb4f1b	0.024817994
64	0x3dee5c7f	0.11638736
65	0x3cdec5b9	0.02719389
66	0x3c97d43d	0.01853382
67	0x3cb160f1	0.02165267
68	0xbdceefbf	-0.10104322
69	0x3dbe6fbc	0.092986554
70	0xbc18ba50	-0.009321764
71	0xbd9bc4b4	-0.076058775
72	0x3be59a53	0.0070069223
73	0xbde73b86	-0.1129065
74	0xbdc7cb8d	-0.09755621
75	0x3d820a9b	0.06349679
76	0x3cd3de80	0.025862932
77	0x3e225db3	0.15856056
78	0xbe091efa	-0.13390723
79	0xbdd03a8f	-0.10167419
80	0xbe13fa12	-0.14450863
81	0xbd7d997d	-0.061913956
82	0xbe3035d5	-0.17208035
83	0xbcdf60d8	-0.027267858
84	0xbd2a6414	-0.04159935
85	0x3d1f91d9	0.03895745
86	0x3da90693	0.08253207
87	0xbdcf54ce	-0.10123597
88	0xbc82e240	-0.015977025
89	0x3c848e0f	0.01618102
90	0xbce500e3	-0.027954524
91	0x3c03912c	0.008030217
92	0xbc99c3ed	-0.018770183
93	0xbe81d543	-0.25358018
94	0xbe3d13e8	-0.18464625
95	0x3daf3f5d	0.085570075
96	0xbd76232d	-0.06009214
97	0x3b819332	0.0039543146
98	0x3dd3666e	0.10322271
99	0xbde52919	-0.111894794
100	0x3d9a3960	0.07530475
101	0x3d0aa924	0.03385271
102	0x3d3c2ef3	0.04594321
103	0x3c146a16	0.009058496
104	0x3d8158c8	0.06315762
105	0xbdf9c431	-0.12195624
106	0x3ec73993	0.38911113
107	0xbd5d4e8f	-0.054029997
108	0x3cbd6fea	0.023124654
109	0x3d85b16c	0.06527981
110	0x3da4da7f	0.08049487
111	0x3c3dc493	0.0115825115
112	0xbd655284	-0.055986896
113	0x3d047523	0.032338273
114	0xbd49cbd3	-0.049266648
115	0xba02e5e1	-0.0004993361
116	0x3df4e118	0.11956996
117	0xbc19c3c0	-0.009385049
118	0xbd80154a	-0.062540606
119	0xbdb3c517	-0.08777826
120	0xbcd1ac2a	-0.02559479
121	0x3e83b5d2	0.25724655
122	0xbcf0fa7e	-0.029416319
123	0xbe6f2af0	-0.23356223
124	0xbd0c5852	-0.034263916
125	0x3bb6f249	0.005583082
126	0xbc82c0b2	-0.015961025
127	0x3b81d6f4	0.003962392
128	0xbdc37a20	-0.09544778
129	0xbd6213c4	-0.05519463
130	0x3e1250b1	0.14288594
131	0xbdb52ea8	-0.088467896
132	0xbe02a10d	-0.12756748
133	0x3b72fe50	0.0037077852
134	0x3ea1aadb	0.31575665
135	0xbd0a8c84	-0.033825412
136	0xbd8c7feb	-0.06860336
137	0xbdc78ce6	-0.09743671
138	0x3b013056	0.0019712648
139	0x3e41431c	0.18873256
140	0x3d0792c1	0.03309894
141	0x3be601f8	0.0070192777
142	0xbd88491e	-0.06654571
143	0xbe9fcac6	-0.3120939
144	0x3d1cc667	0.03827515
145	0x3d83d22a	0.0643657
146	0x3e0134aa	0.12617746
147	0xbc9ea2c4	-0.019364722
148	0xbcc28e05	-0.02374936
149	0x3ca282bc	0.01983773
150	0x3c551371	0.0130051235
151	0xbe1c3fea	-0.15258756
152	0x3d32e32c	0.04367368
153	0x3db21ab1	0.08696497
154	0xbe338b4f	-0.17533611
155	0x3da04ef1	0.07827557
156	0xbc7ee71c	-0.01555803
157	0x3e084621	0.13308002
158	0x3d958c49	0.07302148
159	0xbe33a3e8	-0.17542994
160	0x3b58e8cc	0.0033097742
161	0xbdc19f78	-0.094542444
162	0x3d93ac0f	0.07210552
163	0xbcb2c83d	-0.021823997
164	0x3dbd4ea7	0.09243517
165	0xbd97676a	-0.073927715
166	0x3c28f55d	0.010312405
167	0x3cd462e2	0.025926057
168	0xbe11b350	-0.14228559
169	0xbe2e6d50	-0.17033887
170	0x3beee67a	0.0072906585
171	0xbd9b4bc6	-0.07582812
172	0xbdc31fc7	-0.095275454
173	0xbdbd65ba	-0.092479184
174	0xbea534c2	-0.32266814
175	0x3dc4c0b7	0.0960707
176	0xbd4d7174	-0.050157025
177	0xbd836fcb	-0.06417807
178	0x3d434338	0.047671527
179	0xbcd99fc5	-0.026565442
180	0x3dbb9b7e	0.09160517
181	0xbd33074b	-0.043708127
182	0x3d029dcd	0.03188877
183	0xbde06503	-0.109567665
184	0xbc3c2fb8	-0.011485986
185	0xbe2ac059	-0.16674937
186	0xbb80acf3	-0.003926867
187	0x3d9d98a8	0.076951325
188	0xbd06edb1	-0.032941524
189	0x3d47588d	0.048668433
190	0xb9c4f0cb	-0.00037563438
191	0x3c858464	0.01629848
192	0xbe2422dc	-0.16028923
193	0x3da5d331	0.08096922
194	0x3da55c51	0.080742486
195	0x3cc4dba4	0.024030514
196	0x3df257bb	0.118331395
197	0x3e8d33af	0.27578494
198	0xbd5d41fc	-0.054018006
199	0xbc94b72f	-0.018153755
200	0xbdf37d87	-0.11889177
201	0xbe19a781	-0.15005304
202	0x3d82588a	0.06364544
203	0x3d162d9e	0.036664598
204	0xbc836d14	-0.016043223
205	0x3dee5b51	0.11638511
206	0x3c49620c	0.012291443
207	0x3e52d4d2	0.20588997
208	0x3cbe6c59	0.023245024
209	0xbe4dbd26	-0.20091686
210	0xbe0bbd67	-0.1364647
211	0xbe9c61c2	-0.30543333
212	0xbd74263d	-0.05960678
213	0x3d3408fc	0.04395388
214	0x3def816c	0.11694607
215	0xbe05d92e	-0.13071129
216	0x3d99ccc2	0.075097576
217	0x3d0a82e6	0.03381624
218	0xbc8ce789	-0.017200248
219	0xbb15d02a	-0.002285967
220	0x3d91f39a	0.071265414
221	0xbe0dbb31	-0.13840939
222	0xbeaa8784	-0.33306515
223	0x3d30d9b6	0.043176375
224	0xbdec74d8	-0.11545724
225	0x3cc1b022	0.023643557
226	0xbe290adf	-0.16508053
227	0xbf0313a4	-0.51201844
228	0x3cc0bbf8	0.02352713
229	0x3e9f4ea7	0.31114694
230	0x3d72962d	0.05922525
231	0x3cc6bd6b	0.024260243
232	0xbb812a2b	-0.0039417944
233	0xbde6bac9	-0.11266095
234	0x3df405bd	0.11915157
235	0xbd2cc331	-0.042178337
236	0xbbdf790d	-0.0068198503
237	0xbc70f96e	-0.014707906
238	0x3cba32d1	0.02272931
239	0x3baca6a8	0.0052688904
240	0xbdfbcb64	-0.12294653
241	0x3d904b3c	0.070456
242	0xbc475cd8	-0.012168132
243	0xbc38957a	-0.011266107
244	0x3d0b9932	0.034081645
245	0x3c3e47e4	0.01161382
246	0xbe5b08c2	-0.2139006
247	0x3d24d0cb	0.040238183
248	0x3dfbd945	0.122973
249	0x3e5a5fe2	0.21325639
250	0x3c3494a1	0.011021764
251	0xbe29279a	-0.16519013
252	0x3d015284	0.031572834
253	0xbb257647	-0.00252475
254	0x3b0b4be7	0.0021254958
255	0xbd0d28da	-0.034462787

rnet/prelu1/alpha/read f4 [28]
0	0x3fa5da77	1.2957295
1	0x3db9a8ce	0.090654
2	0xbe01b5bf	-0.12666987
3	0x3ccafb93	0.024778163
4	0xbe96ad79	-0.29429224
5	0x3d847be6	0.06468944
6	0x3c2a8fa2	0.010410221
7	0xbe4559bb	-0.1927251
8	0x3edc1a55	0.4298884
9	0x3f53dced	0.8275898
10	0x3e03448c	0.12819117
11	0xbe220036	-0.15820393
12	0x39192706	0.00014605754
13	0x3dc4f85e	0.09617685
14	0x3dd1fade	0.10252927
15	0x3e0f29a3	0.13980727
16	0x3fa19cb2	1.2625945
17	0xbe4c266b	-0.1993653
18	0xbeb6f07f	-0.3573036
19	0xbeccc8c9	-0.39996937
20	0x3e40d664	0.18831784
21	0x3dcd5e35	0.10027734
22	0x3d8eeb7d	0.069785096
23	0x3d9c6c2a	0.07637818
24	0x3d39fab8	0.04540512
25	0xbf26b42e	-0.6511868
26	0x3d994244	0.07483342
27	0xbdb72cc9	-0.08944089

rnet/prelu2/alpha/read f4 [48]
0	0x3e3f2f3a	0.18670359
1	0x3e3ee915	0.18643601
2	0x3e4aee51	0.19817473
3	0x3eac5f5b	0.336665
4	0x3e3c5b02	0.18394092
5	0x3e721c41	0.2364359
6	0x3dfbe34b	0.12299212
7	0x3d5d13bf	0.05397391
8	0x3db3a58e	0.087718114
9	0x3e0fa11e	0.14026305
10	0x3e28d817	0.16488682
11	0x3e002d6e	0.1251733
12	0x3e414677	0.18874536
13	0x3e59e33e	0.21278092
14	0x3e8dbd6c	0.2768358
15	0xbd3275fb	-0.043569546
16	0x3ea7739b	0.32705387
17	0x3ed379d7	0.41303894
18	0x3de904e0	0.11377883
19	0x3e936817	0.28790352
20	0x3eb2f790	0.349545
21	0x3dfa8d5e	0.12233995
22	0x3ed27467	0.41104433
23	0xbd81afd0	-0.06332362
24	0x3e9dd409	0.30825832
25	0x3e4fbeab	0.20287578
26	0x3e3a1703	0.18172841
27	0x3e09d95a	0.1346182
28	0x3eae768c	0.3407482
29	0x3746b556	1.184394e-05
30	0x3e5ff912	0.21872357
31	0x3e0039a7	0.12521993
32	0x3ea85fca	0.3288558
33	0x3e8d502c	0.2760023
34	0x3eb21f99	0.34789732
35	0x3dacb915	0.08433739
36	0x3ea75038	0.3267839
37	0x3e2e61df	0.17029522
38	0x3f20f378	0.62871504
39	0x3df46273	0.1193284
40	0x3e72b802	0.23703006
41	0x3dd7d090	0.10537827
42	0x3e84f723	0.259698
43	0x3db78502	0.08960916
44	0x3eb1b87b	0.3471106
45	0x3ec5c264	0.3862487
46	0x380bc481	3.332319e-05
47	0xbe28ade1	-0.1647258
